reports/FashionMnistExperiments/5/weights.pt (torch_old, 704386 bytes, 10 tensors)

conv1.weight f4 [32, 1, 3, 3]
0.014636508 0.19669594 0.092401 -0.06581287 0.018920738 -0.2997358 0.2339793 -0.1868622
-0.12319996 -0.112599134 -0.31601766 0.09850896 -0.040198386 -0.102556 -0.11804092 -0.11738143
0.024467804 0.25739574 0.33660027 -0.060130153 -0.16474663 -0.048945654 0.08428961 -0.20800306
-0.26051733 -0.30385908 -0.1067999 -0.2670662 0.20270449 -0.055970162 -0.14523658 -0.29146004
-0.2930317 0.24026898 0.3419735 0.28617668 -0.06637559 0.089308426 0.08972052 -0.0964225
-0.037292186 0.16592729 -0.21870731 0.19489501 -0.27367294 -0.24030794 0.2878239 0.08600051
0.2593582 0.03965945 0.06169034 0.14744166 -0.014365345 -0.07196787 0.2744126 0.116937935
-0.01700926 0.22582035 0.24346712 -0.16872907 -0.027873212 0.2378013 0.17238657 0.34044045
0.12338803 0.09664171 -0.017632052 -0.1954096 0.30288303 -0.30498365 0.09239356 0.2598576
-0.093963906 0.052879363 -0.13962261 0.01183328 0.19289157 -0.17711899 0.016124398 -0.31681532
0.087135345 -0.20714362 -0.15004468 0.31812 -0.30361286 0.08215245 0.046291556 0.20670669
-0.020349303 -0.050074283 0.10980194 0.039022714 0.2425662 0.06519539 0.058494933 -0.06669342
0.09467878 -0.092485294 -0.09484198 0.074030824 -0.32111135 0.20346326 -0.094693124 -0.21467789
-0.23507905 0.18084246 0.17330763 -0.075957924 -0.28610078 -0.029971102 -0.08392877 -0.058635186
-0.18636228 -0.055424917 -0.25225687 0.021920793 -0.05065825 -0.29638794 -0.2790953 0.009118713
0.11271893 -0.06525121 -0.2855949 0.2600354 -0.15339015 0.16902174 -0.25836074 -0.022508433
0.004218383 -0.23312542 0.120948546 0.31429622 0.26684695 0.16096058 0.2351397 0.180208
0.24047975 0.31042656 0.059857953 0.1325822 -0.059971314 -0.007670119 -0.18324307 0.096833825
-0.017879056 0.078312404 -0.06506222 0.04124913 0.12109802 0.34882492 -0.3000105 0.2656818
0.01918167 0.1814788 0.1881343 0.2774695 0.20866035 -0.1725818 -0.0821569 -0.21774079
-0.117012724 0.03654483 0.17316373 0.12760466 -0.12777734 0.043957762 -0.1551143 0.099369794
-0.08174916 0.33144197 0.20545718 -0.3136737 -0.16287945 -0.23936413 -0.035670012 0.16163182
0.2597993 0.03486319 0.04821707 -0.1657009 0.0534266 0.26166993 0.146173 -0.22543448
0.06749241 0.3291512 0.3095805 0.054518048 -0.057119913 -0.11148664 -0.20812865 -0.24751857
-0.15658793 0.06721601 -0.2131855 0.22278452 -0.0893739 0.23980083 -0.12747526 0.32668206
-0.028485883 0.2756568 0.091503456 -0.21717647 0.13206889 -0.06067278 0.03382106 0.021604085
0.19573513 0.28633925 0.3184133 0.1842095 -0.1307411 0.1453826 0.28574216 -0.17464091
-0.13352941 -0.30832297 -0.05547772 0.12450124 -0.26604566 -0.1992082 -0.08913808 0.06629425
0.210934 0.10493613 -0.24752682 0.02676411 -0.067756 0.21757035 0.25523484 0.13824986
0.08968121 0.10801061 -0.30634436 0.017028447 -0.27797455 0.10949216 -0.18206854 -0.36360824
0.16021603 -0.28226134 -0.04651966 0.059609782 0.17263624 0.14079107 -0.3035254 -0.08956203
-0.16390972 -0.028212039 -0.3126772 0.13999106 0.2956149 0.1907029 -0.24793322 -0.039665714
00000000: f7cd 6f3c a96a 493e bc3c bd3d e6c8 86bd
00000010: aaff 9a3c f976 99be 4598 6f3e ce58 3fbe
00000020: 4350 fcbd 609a e6bd 11cd a1be 11bf c93d
00000030: 10a7 24bd e108 d2bd 70bf f1bd ad65 f0bd
00000040: b470 c83c 60c9 833e df56 ac3e 094b 76bd
00000050: 57b3 28be 3d7b 48bd 08a0 ac3d c1fe 54be
00000060: 8762 85be 6b93 9bbe e8b9 dabd e7bc 88be
00000070: c491 4f3e f840 65bd e6b8 14be 403a 95be
00000080: 4008 96be 1209 763e 2717 af3e c085 923e
00000090: edef 87bd 56e7 b63d 64bf b73d 2979 c5bd
000000a0: b1bf 18bd d8e8 293e cff4 5fbe 8f92 473e
000000b0: dc1e 8cbe 4913 76be a75d 933e 0921 b03d
000000c0: 99ca 843e f371 223d 03af 7c3d f2fa 163e
000000d0: a05c 6bbc e463 93bd cf7f 8c3e 287d ef3d
000000e0: 0157 8bbc 733d 673e 724f 793e 50c7 2cbe
000000f0: 5d56 e4bc 2f82 733e 1b86 303e 364e ae3e
00000100: ddb2 fc3d 17ec c53d 1871 90bc 7419 48be
00000110: 7c13 9b3e d126 9cbe d638 bd3d 0e0c 853e
00000120: 2670 c0bd 0898 583d 3bf9 0ebe 60e0 413c
00000130: 5e85 453e ae5e 35be 5017 843c 9e35 a2be
00000140: 0474 b23d 751d 54be 50a5 19be a0e0 a23e
00000150: 2573 9bbe 8b3f a83d 379c 3d3d ebaa 533e
00000160: 95b3 a6bc b11a 4dbd d7df e03d 48d6 1f3d
00000170: 4663 783e 2985 853d 6298 6f3d 8f96 88bd
00000180: f3e6 c13d ee68 bdbd 833c c2bd 799d 973d
00000190: b568 a4be ac58 503e 78ee c1bd 85d4 5bbe
000001a0: 90b8 70be c42e 393e 8e77 313e d48f 9bbd
000001b0: cd7b 92be f585 f5bc d9e2 abbd 732b 70bd
000001c0: c1d5 3ebe 3d05 63bd d027 81be 3c93 b33c
000001d0: 067f 4fbd 29c0 97be 94e5 8ebe a866 153c
000001e0: 2fd9 e63d 6da2 85bd 7f39 92be 5c23 853e
000001f0: 4f12 1dbe 0914 2d3e dc47 84be 9b63 b8bc
00000200: 5d3a 8a3b 6eb8 6ebe dfb3 f73d 6feb a03e
00000210: 2aa0 883e dad2 243e 76c8 703e 7288 383e
00000220: 5340 763e 3bf0 9e3e 9d2d 753d a1c3 073e
00000230: 7ba4 75bd 9f55 fbbb 12a4 3bbe d050 c63d
00000240: 1977 92bc 4162 a03d 573f 85bd d9f4 283d
00000250: 3d02 f83d 2e99 b23e fa9a 99be 7207 883e
00000260: e122 9d3c 94d5 393e 47a6 403e 7b10 8e3e
00000270: 0fab 553e 49b9 30be e041 a8bd 71f7 5ebe
00000280: 5ea4 efbd 08b0 153d d551 313e ccaa 023e
00000290: 10d8 02be 0e0d 343d 48d6 1ebe 6482 cb3d
000002a0: 1b6c a7bd c3b2 a93e 5e63 523e d799 a0be
000002b0: dfc9 26be df1b 75be b81a 12bd d082 253e
000002c0: 6a04 853e b4cc 0e3d 437f 453d 7fad 29be
000002d0: dad5 5a3d 9af9 853e 60ae 153e 4cd8 66be
000002e0: 7639 8a3d 8286 a83e 5681 9e3e 514e 5f3d
000002f0: 92f6 69bd 1c53 e4bd ad1f 55be 8275 7dbe
00000300: 9658 20be 8ca8 893d 4d4d 5abe a021 643e
00000310: aa09 b7bd 598e 753e e088 02be df42 a73e
00000320: 3a5b e9bc e322 8d3e 2a66 bb3d 8263 5ebe
00000330: 113d 073e 0584 78bd f487 0a3d 0dfb b03c
00000340: ca6e 483e 0f9b 923e 1107 a33e 6aa1 3c3e
00000350: ffe0 05be 2ddf 143e cc4c 923e 11d5 32be
00000360: efbb 08be 82dc 9dbe 9b3c 63bd 82fa fe3d
00000370: 2337 88be 3cfd 4bbe 078e b6bd 48c5 873d
00000380: 15ff 573e c1e8 d63d ac77 7dbe 6840 db3c
00000390: a8c3 8abd c3ca 5e3e 24ae 823e 5f91 0d3e
000003a0: c8aa b73d ab34 dd3d 2bd9 9cbe 3e7f 8b3c
000003b0: ae52 8ebe 6d3d e03d 2d70 3abe dc2a babe
000003c0: ac0f 243e 8f84 90be 668b 3ebd 6329 743d
000003d0: 8ec7 303e 892b 103e ae67 9bbe 4c6c b7bd
000003e0: f3d7 27be ef1c e7bc 3a17 a0be d159 0f3e
000003f0: d65a 973e 9f47 433e 35e2 7dbe 8478 22bd

conv1.bias f4 [32]
-0.014641039 0.29442182 -0.10763569 -0.2420506 0.16859075 0.14416024 0.24312633 -0.27144507
-0.322146 0.022716792 0.22933064 0.04800184 0.2833191 -0.07114758 0.037447 0.035383992
0.18535672 -0.13722692 0.24292487 0.26062462 0.304785 0.07443322 -0.115821056 -0.18177482
0.2712919 -0.19951877 0.23130278 0.02281066 -0.030448789 -0.036545623 0.035474867 0.22313426
00000000: f8e0 6fbc 75be 963e 1a70 dcbd 1ddc 77be
00000010: 0ea3 2c3e be9e 133e 1cf6 783e d9fa 8abe
00000020: 52f0 a4be 9118 ba3c a7d5 6a3e 949d 443d
00000030: 330f 913e d3b5 91bd 0762 193d ceee 103d
00000040: 27ce 3d3e 3785 0cbe 4cc1 783e 9770 853e
00000050: c80c 9c3e 7270 983d 9733 edbd 2e23 3abe
00000060: c6e6 8a3e a64e 4cbe a3da 6c3e 6cdd ba3c
00000070: bd6f f9bc ddb0 15bd 184e 113d 4f7d 643e

conv2.weight f4 [64, 32, 3, 3]
-0.00095793605 -0.013026821 -0.09040876 -0.028922325 -0.030588526 -0.07243518 -0.03087962 -0.00850858
-0.061662138 0.02178092 -0.0017950067 0.015951956 0.022294044 -0.025215387 -0.064963765 0.006420538
-0.0068662195 0.019353772 -0.010533355 0.033152655 0.052581836 0.01905598 -0.07599816 -0.00079276075
-0.03232817 0.016693914 0.037750755 0.0007471035 -0.057542503 0.025829054 0.012888969 -0.07723718
-0.017800113 -0.09296153 -0.036416505 0.010290119 -0.03187456 -0.061556008 -0.04753514 0.022437356
-0.037161622 0.0043735863 -0.040700465 -0.033295214 -0.039914805 0.030683214 0.014067383 -0.026441751
0.05634684 0.026919935 0.051337823 0.04971292 0.06560539 -0.03713466 0.06631413 0.012968417
-0.018258482 -0.02276884 0.0688414 0.021615107 0.05779169 0.005542684 0.050319117 -0.047837738
-0.0058206767 -0.03242397 0.02048231 0.016962476 0.058577728 0.050018273 -0.021295486 -0.051381726
0.04424167 -0.010111906 1.2349337e-05 0.031142842 0.028984059 0.054852042 -0.028396608 -0.049035568
0.0065817498 0.033456735 -0.025912616 -0.060196877 0.022579296 -0.059951846 -0.06609315 -0.0016158433
-0.010809813 0.0053540603 -0.00571676 -0.022534745 0.0013501924 0.010524032 -0.039554812 -0.0046632257
-0.034289308 0.053295508 -0.04278413 -0.057067435 -0.040805846 -0.04074985 -0.09129607 -0.001614806
-0.09556487 -0.0918568 -0.035710994 -0.0104235485 -0.03315842 -0.011750508 -0.08506365 -0.00059910887
-0.0141207585 0.023079678 0.016690012 -0.026910348 -0.07522702 0.039811913 0.016762683 0.04484296
0.012993049 -0.050454795 -0.025741212 -0.06762397 -0.08253518 -0.004029755 -0.024701778 -0.005219763
0.009797485 0.016432391 0.030455535 0.035960056 0.061323557 0.0026840875 -0.015406749 -0.016068207
0.016350267 0.03744825 0.045536973 0.011285645 0.07266969 0.021597777 0.050288536 -0.04020075
0.04515393 0.06366876 -0.00106492 0.04080025 0.06659738 0.048765767 -0.04493156 0.057501692
0.049476977 -0.06741677 -0.0051384084 -0.02469917 0.022005536 -0.05892681 -0.05910129 0.006366924
0.01802846 -0.03643974 0.055588584 0.018162543 0.050774757 0.06957264 -0.03173462 0.00469842
0.027777275 0.037545897 0.06437152 -0.064525254 0.040802687 0.035159957 -0.059706163 -0.049642988
-0.011639998 0.014680347 -0.007898102 -0.049123187 0.031797078 0.033318385 0.011355257 0.034859758
0.042217273 -0.03949974 0.023485888 -0.021477222 0.040639043 -0.06829191 -0.05024493 -0.052224435
-0.031756002 0.0064240606 -0.019827414 -0.06762183 0.006485522 -0.06396609 -0.0010081538 -0.002781071
0.059846442 0.069585204 0.011960028 0.0057971263 -0.031614877 0.010624944 -0.009266315 0.046685435
-0.039551605 -0.030492641 0.023546992 -0.045456592 0.012768453 0.03885395 0.009014385 -0.03121013
-0.08342941 -0.015539485 -0.076974764 -0.048148286 0.012129043 -0.0846205 -0.04315334 0.029355083
0.007034324 0.04249541 0.021026166 0.051273864 0.03786465 -0.017852064 -0.005794768 0.007962233
0.057756692 -0.025360813 -0.07040384 -0.04509791 -0.01605429 -0.08585899 -0.07200581 -0.030025927
-0.058613908 -0.031189771 -0.033684757 -0.060870707 -0.008645281 -0.08156742 0.020830253 -0.022796787
0.013283715 -0.0078955 -0.018563144 -0.005053316 -0.05248327 -0.063033335 0.0374313 -0.0630391
00000000: 001e 7bba 736e 55bc 3a28 b9bd 83ee ecbc
00000010: ca94 fabc e558 94bd 42f7 fcbc 9267 0bbc
00000020: 7091 7cbd e66d b23c 6e46 ebba adad 823c
00000030: 00a2 b63c 8090 cebc b90b 85bd 6063 d23b
00000040: 06fe e0bb cd8b 9e3c 1894 2cbc 14cb 073d
00000050: 0d60 573d 491b 9c3c eca4 9bbd 46d1 4fba
00000060: 8b6a 04bd adc1 883c 89a0 1a3d 44d9 433a
00000070: b0b1 6bbd 7497 d33c 412c 533c 872e 9ebd
00000080: 8bd1 91bc 9d62 bebd 7929 15bd e397 283c
00000090: e68e 02bd 2722 7cbd 35b4 42bd 8cce b73c
000000a0: c936 18bd 4d50 8f3b 88b5 26bd 9060 08bd
000000b0: b57d 23bd 5d5b fb3c e17a 663c 5f9c d8bc
000000c0: f2cb 663d 3287 dc3c 9c47 523d c69f 4b3d
000000d0: 1e5c 863d 831a 18bd b4cf 873d 7c79 543c
000000e0: d092 95bc b885 babc b8fc 8c3d 2a12 b13c
000000f0: fbb6 6c3d 679f b53b 6b1b 4e3d 81f1 43bd
00000100: 60bb bebb ffce 04bd 84ca a73c e4f4 8a3c
00000110: 33ef 6f3d f6df 4c3d df73 aebc a575 52bd
00000120: c136 353d 68ac 25bc 0030 4f37 461f ff3c
00000130: fa6f ed3c 89ac 603d 01a0 e8bc 85d9 48bd
00000140: b8ab d73b ee09 093d b246 d4bc 0091 76bd
00000150: 37f8 b83c 1190 75bd d85b 87bd b4ca d3ba
00000160: a41b 31bc 1d71 af3b a953 bbbb c99a b8bc
00000170: f0f8 b03a fd6c 2c3c 3a04 22bd f9cd 98bb
00000180: f272 0cbd 644c 5a3d 693e 2fbd 8bbf 69bd
00000190: 0824 27bd 51e9 26bd 6ff9 babd e6a7 d3ba
000001a0: 84b7 c3bd 6b1f bcbd b145 12bd 88c7 2abc
000001b0: 20d1 07bd 3485 40bc da35 aebd 840d 1dba
000001c0: c15a 67bc 9811 bd3c 7eb9 883c 1773 dcbc
000001d0: a010 9abd d111 233d e551 893c 40ad 373d
000001e0: cce0 543c b0a9 4ebd 3cdf d2bc 707e 8abd
000001f0: 3408 a9bd 090c 84bb 625b cabc 8c0a abbb
00000200: a185 203c 399d 863c e37d f93c da4a 133d
00000210: 692e 7b3d 84e7 2f3b 976c 7cbc 79a1 83bc
00000220: fff0 853c 5663 193d fa84 3a3d 6de7 383c
00000230: d9d3 943d d2ed b03c 5afb 4d3d 8ba9 24bd
00000240: 54f3 383d c464 823d c994 8bba 2a1e 273d
00000250: 3564 883d 9dbe 473d 280a 38bd e586 6b3d
00000260: 5fa8 4a3d ce11 8abd 1860 a8bb ea55 cabc
00000270: f444 b43c 3d5d 71bd 3214 72bd a1a1 d03b
00000280: 6cb0 933c d641 15bd dbb0 633d 9dc9 943c
00000290: 31f9 4f3d 1a7c 8e3d 29fc 01bd 34f5 993b
000002a0: 2b8d e33c bac9 193d 37d5 833d d125 84bd
000002b0: b820 273d e303 103d 738e 74bd 7256 4bbd
000002c0: b1b5 3ebc d785 703c 0a67 01bc 6535 49bd
000002d0: a73d 023d dc78 083d 660b 3a3c 1bc9 0e3d
000002e0: 05ec 2c3d 7bca 21bd 7a65 c03c 00f1 afbc
000002f0: 2075 263d a1dc 8bbd a1cd 4dbd 4ae9 55bd
00000300: 9512 02bd ed80 d23b 1a6d a2bc 507d 8abd
00000310: 8084 d43b a700 83bd 0724 84ba a142 36bb
00000320: 8b21 753d b082 8e3d fef3 433c d2f5 bd3b
00000330: 9a7e 01bd 3f14 2e3c bed1 17bc 3a39 3f3d
00000340: dd00 22bd b4cb f9bc 9fe5 c03c b130 3abd
00000350: c632 513c 5225 1f3d 12b1 133c 63ac ffbc
00000360: 0add aabd 5399 7ebc f2a4 9dbd 2337 45bd
00000370: e5b8 463c 834d adbd 8fc1 30bd 127a f03c
00000380: 3080 e63b ab0f 2e3d 113f ac3c 8b04 523d
00000390: f717 1b3d 7e3e 92bc 0ae2 bdbb 0774 023c
000003a0: 4892 6c3d 7bc1 cfbc e32f 90bd 96b8 38bd
000003b0: 4984 83bc d7d6 afbd c877 93bd eff8 f5bc
000003c0: 2315 70bd b181 ffbc 07f9 09bd 9053 79bd
000003d0: f0a4 0dbc d20c a7bd 35a4 aa3c 54c0 babc
000003e0: f0a3 593c 215c 01bc bc11 98bc 4996 a5bb
000003f0: b3f8 56bd 9f17 81bd 9051 193d a51a 81bd

conv2.bias f4 [64]
0.0067036385 -0.037137978 -0.02372237 0.012323824 -0.021933232 0.023440586 0.012748098 0.023976099
-0.04290682 0.012761141 0.015306302 0.056606296 0.04294749 0.052883767 0.0023996592 0.021678159
0.02619246 -0.010486893 -0.012971603 -0.029575812 -0.009443764 -0.0031685922 -0.047469757 -0.054127898
0.055978566 0.04758807 -0.015378917 0.04981841 0.051734254 0.034096144 0.06866194 -0.013240549
-0.026591877 -0.03575 0.0034517276 0.030533668 0.014292684 0.051213615 -0.013592012 -0.041035373
0.031973887 0.008632948 -0.0016413011 -0.017598549 -0.04391732 0.015877536 0.016048005 0.026977424
-0.059042092 -0.054318935 0.022710294 0.049427383 0.024548413 0.059052017 0.004664975 0.010273205
0.05653697 -0.044063922 -0.0076010837 -0.04952324 0.0038382502 -0.014594264 -0.01554273 0.054440618
00000000: 32aa db3b fe1d 18bd 6a55 c2bc dde9 493c
00000010: 52ad b3bc 7906 c03c 66dd 503c 8669 c43c
00000020: 10bf 2fbd 1b14 513c 49c7 7a3c 01dc 673d
00000030: b5e9 2f3d a69c 583d 9a43 1d3b 6596 b13c
00000040: 9291 d63c 38d1 2bbc d986 54bc f948 f2bc
00000050: 04ba 1abc 28a8 4fbb a66f 42bd 37b5 5dbd
00000060: c849 653d b5eb 423d daf7 7bbc 640e 4c3d
00000070: 4ce7 533d 66a8 0b3d a29e 8c3d e3ee 58bc
00000080: 35d7 d9bc 986e 12bd 6136 623b be21 fa3c
00000090: dd2b 6a3c 5ec5 513d 08b1 5ebc b514 28bd
000000a0: 0df7 023d 3571 0d3c ed20 d7ba d52a 90bc
000000b0: a6e2 33bd 9b11 823c 1b77 833c c2ff dc3c
000000c0: 1fd6 71bd 887d 5ebd f00a ba3c 5e74 4a3d
000000d0: c119 c93c 87e0 713d a6dc 983b f250 283c
000000e0: 4f93 673d 5f7c 34bd 8312 f9bb e2d8 4abd
000000f0: 278b 7b3b c81c 6fbc efa6 7ebc 20fd 5e3d

conv3.weight f4 [64, 64, 3, 3]
-0.019288145 0.0021433604 -0.04556199 0.04124509 -0.010049751 0.0038953482 0.027207635 -0.026134571
0.0052148364 -0.045056917 -0.037083283 -0.05485767 -0.029855736 -0.018211925 0.015847832 -0.023501055
-0.026946314 0.028312048 -0.009606246 0.008968487 0.005935129 -0.011108667 -0.038787 -0.019204557
-0.025709178 5.2526593e-05 -0.013806969 0.02179314 0.006304992 0.016708372 -0.02805526 0.022247173
-0.019193327 -0.032400988 -0.011375468 -0.019823961 -0.035717845 -0.044431306 -0.051545188 0.008693103
0.014244502 -0.029543217 0.034653004 0.0014204101 0.03917356 0.020212997 0.011040666 0.029884394
-0.00984892 -2.339571e-05 0.017615909 -0.007406232 0.0292553 0.036770184 0.044861153 -0.018236196
-0.010352058 0.0510743 0.022724705 0.0122057 -0.02265413 0.010212243 0.012492593 0.028436327
0.026523177 -0.03997059 -0.03477469 -0.01477308 -0.023629682 0.052732684 0.007541805 -0.009515638
0.01885941 0.022741674 -0.01833124 -0.026061088 0.010752224 0.04378075 0.055177875 0.019905897
-0.0022869678 -0.009738797 0.007995292 0.03635501 0.016657304 0.022973403 0.02686204 -0.023708794
0.049595956 0.058871347 0.023228569 -0.01932379 -0.02067571 0.04058234 0.024931962 0.020150676
-0.010202453 0.046361957 0.046716504 0.018610546 -0.004624086 0.041532524 -0.01649577 0.04098847
0.051527955 -0.014326341 -0.0010793889 0.02689308 0.050040465 -0.00699764 -0.017485956 -0.017698934
0.009220455 -0.00035755715 0.050178237 0.015498639 -0.0038809378 -0.0098773 0.035054572 0.037034974
-0.008397087 0.042456124 0.027305434 0.04780077 0.044640504 0.0010506356 -0.04898849 -0.019658227
0.005688136 0.030201105 -0.003877482 0.030706447 0.05374926 0.050058264 0.012963557 0.044019908
-0.024539385 -0.0140192285 0.038557414 -0.009249731 0.042798687 -0.018407235 -0.013708714 0.036344703
-0.0086070215 -0.03671384 -0.026104769 0.01255159 0.012780888 0.035203647 0.03147695 0.034487285
-0.0069624865 -0.03391292 -0.007137519 0.023801839 0.049293704 0.047719505 0.038235545 0.02901194
0.022220556 0.04786985 -0.022831809 -0.02851832 -0.003955247 -0.018747825 -0.019493425 -0.015298808
0.03731949 0.013752924 0.009031747 -0.028912507 -0.03172023 -0.04945038 -0.038186595 -0.003676011
-0.010350225 0.036851604 0.0008534075 -0.004132023 -0.03166606 0.024491273 -0.03611002 -0.02187242
-0.021998312 -0.027347578 -0.025677707 -0.0354771 0.018726967 0.016334195 0.019686643 -0.02009641
0.029168902 -0.021739013 0.008849816 0.049101595 0.0010211366 -0.0008593509 -0.051537514 -0.0077866297
0.023129927 -0.040084533 -0.024058692 -0.0021455071 0.009501589 0.012090204 0.002924536 -0.0041754534
-0.03167175 0.027077418 0.019282622 -0.006189368 0.0099618705 -0.009516692 -0.019789262 -0.002244322
0.01558967 0.03937156 0.048041675 0.032673594 -0.01449328 0.056372087 0.01433329 0.056606058
0.036717795 -0.029479643 -0.003000848 -0.0054342807 -0.015944367 0.019549565 0.0010286373 -0.0014137654
-0.012544272 0.04521308 -0.011535996 0.016756756 0.026528379 0.045327697 0.0013414175 0.055342928
0.034849506 -0.0071925414 0.048916984 -0.019269636 0.039027903 0.031830613 -0.008824747 0.033762142
0.03304975 0.039931946 0.033909336 0.002380167 -0.00066991197 0.0055494267 0.009470313 0.014972038
00000000: 2c02 9ebc 9f77 0c3b 369f 3abd 9df0 283d
00000010: b6a7 24bc 1949 7f3b 8ce2 de3c 2b18 d6bc
00000020: 38e1 aa3b 9a8d 38bd a4e4 17bd 70b2 60bd
00000030: 0494 f4bc 2d31 95bc 50d3 813c 4985 c0bc
00000040: 84be dcbc abee e73c 8463 1dbc 90f0 123c
00000050: 787b c23b 2001 36bc 1edf 1ebd e052 9dbc
00000060: 0e9c d2bc 0050 5c38 a036 62bc 8787 b23c
00000070: 1b9a ce3b ffdf 883c 25d4 e5bc b43f b63c
00000080: 533b 9dbc e6b6 04bd 2c60 3abc dc65 a2bc
00000090: e04c 12bd 9afd 35bd 0c21 53bd 846d 0e3c
000000a0: c661 693c 9e04 f2bc 4ff0 0d3d 0e2d ba3a
000000b0: 7474 203d ba95 a53c e9e3 343c 1ed0 f43c
000000c0: 5d5d 21bc e841 c4b7 3d4f 903c faaf f2bb
000000d0: d0a8 ef3c 559c 163d 54c0 373d 1364 95bc
000000e0: ae9b 29bc 4933 513d 2929 ba3c 6bfa 473c
000000f0: 2795 b9bc 4051 273c bcad 4c3c 4df3 e83c
00000100: 2247 d93c 34b8 23bd e86f 0ebd ca0a 72bc
00000110: 0993 c1bc 3afe 573d 3f21 f73b 7be7 1bbc
00000120: 0d7f 9a3c bf4c ba3c 662b 96bc 107e d5bc
00000130: 192a 303c 7253 333d 3202 623d b111 a33c
00000140: f4e0 15bb 7a8f 1fbc affe 023c fee8 143d
00000150: e674 883c b832 bc3c c80d dc3c f238 c2bc
00000160: 2125 4b3d 1523 713d d749 be3c ed4c 9ebc
00000170: 1b60 a9bc ab39 263d 1d3e cc3c 0813 a53c
00000180: 3028 27bc 09e6 3d3d ce59 3f3d 2575 983c
00000190: a585 97bb 021e 2a3d 2322 87bc 87e3 273d
000001a0: fa0e 533d 08b9 6abc 487a 8dba e04e dc3c
000001b0: 3bf7 4c3d 754c e5bb b53e 8fbc 5bfd 90bc
000001c0: 6411 173c 8276 bbb9 b287 4d3d 01ee 7d3c
000001d0: 5557 7ebb 66d4 21bc 6295 0f3d fcb1 173d
000001e0: f093 09bc 79e6 2d3d a5af df3c bdca 433d
000001f0: f6d8 363d 7bb5 893a 28a8 48bd 4a0a a1bc
00000200: 8b63 ba3b 4f68 f73c 5a1d 7ebb 168c fb3c
00000210: 2f28 5c3d e509 4d3d 1965 543c 384e 343d
00000220: d206 c9bc e8b0 65bc 61ee 1d3d 2f8c 17bc
00000230: ad4d 2f3d c5ca 96bc 849a 60bc 2fde 143d
00000240: 7704 0dbc 4061 16bd abd9 d5bc 2fa5 4d3c
00000250: ee66 513c b331 103d f9ed 003d 8a42 0d3d
00000260: 9225 e4bb 46e8 0abd d9e1 e9bb 13fc c23c
00000270: 32e8 493d 8775 433d e09c 1c3d 73aa ed3c
00000280: e207 b63c 2d13 443d c609 bbbc 409f e9bc
00000290: 049b 81bb 0a95 99bc adb0 9fbc daa7 7abc
000002a0: 52dc 183d f253 613c e4f9 133c ecd9 ecbc
000002b0: 12ed 01bd 7b8c 4abd 8c69 1cbd 3be9 70bb
000002c0: fd93 29bc b5f1 163d 35b7 5f3a ec65 87bb
000002d0: 45b4 01bd eca1 c83c 1ae8 13bd ca2d b3bc
000002e0: ce35 b4bc 0708 e0bc 0e5a d2bc 7050 11bd
000002f0: 4c69 993c 4acf 853c e245 a13c 3aa1 a4bc
00000300: 9ff3 ee3c 0416 b2bc d2fe 103c c11e 493d
00000310: a9d7 853a 1046 61ba 0019 53bd fc26 ffbb
00000320: f97a bd3c ae2f 24bd bc16 c5bc a39b 0cbb
00000330: 8eac 1b3c fe15 463c 92a9 3f3b 3ed2 88bb
00000340: 3dba 01bd 76d1 dd3c 97f6 9d3c 2fd0 cabb
00000350: 1d37 233c e6eb 1bbc 171d a2bc 7a15 13bb
00000360: d16b 7f3c 1344 213d 59c7 443d bfd4 053d
00000370: 3975 6dbc 6be6 663d 2dd6 6a3c c1db 673d
00000380: 6665 163d 4b7f f1bc e0a9 44bb 0d12 b2bb
00000390: c39d 82bc 6926 a03c 57d3 863a 184e b9ba
000003a0: 7d86 4dbc 5a31 393d 7901 3dbc 7745 893c
000003b0: 0b52 d93c 89a9 393d 81d2 af3a 44af 623d
000003c0: 5bbe 0e3d 69af ebbb 2d5d 483d 5bdb 9dbc
000003d0: b9db 1f3d d160 023d ac95 10bc 2c4a 0a3d
000003e0: 2d5f 073d ae8f 233d 84e4 0a3d 93fc 1b3b
000003f0: 089d 2fba f7d7 b53b 5f29 1b3c 474d 753c

conv3.bias f4 [64]
0.003039469 -0.019116187 0.032917153 -0.021471923 -0.021433143 0.009366906 0.03677535 0.020668564
0.005210173 -0.024955967 0.0040587825 0.0008496765 0.027623834 0.024118593 -0.0055442206 -0.048521914
-0.003978601 0.030674819 -0.014411089 0.040699616 0.024652628 0.020842353 0.040783416 -0.0393166
-0.04100438 0.011533674 -0.0081115095 0.02123844 -0.024663508 0.004920334 -0.004284002 -0.0030968995
0.02093422 0.0057311268 -0.03041604 0.034305234 0.0078046736 0.031259052 0.030792201 0.021107843
-0.032291997 0.04429893 0.004511527 0.026699714 0.024651956 -0.021475025 0.023131976 0.040792085
-0.032128837 -0.038850393 0.024959905 0.022055823 -0.01637822 0.020031206 -0.024261143 -0.031742442
-0.0026710664 0.018226119 0.014629675 0.029615806 -0.020181809 -0.0008476688 0.0050791698 0.03446451
00000000: d431 473b 8d99 9cbc 23d4 063d e3e5 afbc
00000010: 8f94 afbc a777 193c c0a1 163d 1f51 a93c
00000020: 19ba aa3b 7570 ccbc 89ff 843b d3bc 5e3a
00000030: 614b e23c 5b94 c53c 4bac b5bb eabe 46bd
00000040: ed5e 82bb c249 fb3c 7d1c 6cbc a4b4 263d
00000050: 4ff4 c93c 95bd aa3c 830c 273d 710a 21bd
00000060: 35f4 27bd bcf7 3c3c 23e6 04bc 3dfc ad3c
00000070: 200b cabc c13a a13b d060 8cbb 5af5 4abb
00000080: 3e7e ab3c 2dcc bb3b 0f2b f9bc a583 0c3d
00000090: 59be ff3b 7e09 003d ed3f fc3c 5bea ac3c
000000a0: 9d44 04bd cb72 353d 6ed5 933b 5cb9 da3c
000000b0: e6f2 c93c 64ec afbc 457f bd3c 9a15 273d
000000c0: 8799 03bd 9721 1fbd b778 cc3c 6aae b43c
000000d0: 9e2b 86bc 7c18 a43c 4ebf c6bc 5d04 02bd
000000e0: 0f0d 2fbb f14e 953c 4eb1 6f3c d99c f23c
000000f0: 5254 a5bc 1736 5eba 2a6f a63b a82a 0d3d

conv4.weight f4 [128, 64, 3, 3]
-0.012758195 -0.025005212 -0.007099839 -0.045731734 -0.045158964 -0.042435788 0.014838759 -0.05071293
-0.0077482015 -0.038480166 -0.028039608 -0.016428368 -0.023806397 0.018513257 -0.0006992059 -0.05069457
-0.025337167 -0.03190082 0.03897542 0.027450807 0.009407287 0.032427344 -0.0006837965 0.020656787
-0.019813808 -0.024450729 -0.02424585 -0.02610679 0.0020063273 -0.0012308435 -0.029581401 0.060808573
0.015569933 -0.02602906 0.0270169 -0.008865905 0.033036027 0.01221224 -0.033906892 0.011284014
0.005143188 -0.030084137 0.005026307 0.01917143 -0.036895424 0.00360358 0.01762003 0.037606396
-0.01195243 0.024814961 0.037847374 0.03809533 0.01583698 -0.0021702095 0.029744709 0.010442695
0.01627046 0.043530542 0.029401937 0.024967795 -0.004533918 -0.017665412 0.016478866 0.022239221
-0.0016404989 0.0027652057 0.024111746 0.052413564 0.04226239 0.03691675 0.005137247 -0.040977478
-0.0063363034 0.02521141 -0.014630099 -0.0029859869 0.0413989 0.030461462 -0.0076211276 -0.024356812
-0.0076657324 0.04124053 0.005228343 0.024058904 -0.024375344 -0.0010767659 0.034694765 0.004071186
-0.029608723 0.00658827 0.036107097 0.03795655 0.006717566 -0.021424042 -0.027216874 0.043090552
0.0058543915 0.02328321 0.0022389076 0.023043938 -0.014028139 -0.052532345 -0.024609396 0.04083507
0.041321944 0.03944618 0.04413524 0.031217104 -0.033514597 0.0048346915 -0.016595697 -0.012605341
-0.01315805 -0.03853794 0.018256174 0.014974962 0.016051916 -0.029821577 0.022153169 -0.006941226
-0.019838145 -0.015498567 -0.03319551 0.03809599 -0.027086155 -0.008110086 0.042752787 0.011288991
-0.003526742 -0.02262718 0.005228094 0.027444687 -0.0022964329 0.02308148 -0.03630766 -0.004723098
0.016168024 0.028391544 0.031425428 -0.0012902548 -0.01909281 -0.010498942 0.030100835 0.0009946376
0.02158581 -0.044411756 -0.04352764 -0.03601338 -0.027178658 -0.022444567 -0.027042158 -0.057027884
0.020592514 0.022830868 0.03685442 -0.04552712 0.031704463 0.024238342 0.04103314 0.0026693465
0.003296202 0.026225723 -0.015455421 0.041917853 -0.028900865 -0.003440568 0.019096788 -0.0048032464
-0.011887038 -0.024141114 -0.032654975 0.00573837 -0.039345916 0.0067773564 0.024662513 -0.02585996
-0.047600143 0.013163265 -0.0205522 -0.020202847 0.010145341 -0.003162695 0.026639896 0.013666174
0.0065826257 0.024852261 0.020373566 0.020510102 -0.00014415149 -0.03377985 -0.022115765 0.014050647
0.038241964 -0.0016990345 0.021761877 0.00064508815 0.039834216 0.028908035 -0.02854949 0.037654392
0.015747895 -0.035489064 0.01679756 -0.02547441 0.033346634 0.02215009 -0.04611919 0.0050552823
-0.039959844 0.021158945 -0.007826269 -0.03195223 -0.013268776 0.014663991 0.032340083 0.033885214
0.020659072 0.03959608 -0.041747604 -0.027753124 -0.0010490254 -0.00088568474 0.02824661 -0.00027983377
0.03370299 0.037265632 -0.007025352 -0.004755281 0.036982115 0.028715303 0.035824277 -0.0267578
-0.01701629 -0.02420667 -0.010323671 0.007211407 0.027670218 0.044914097 0.05824372 0.010393009
-0.033740085 -0.024949979 -0.0066317604 0.0031998495 0.014167757 0.030432733 -0.027297802 0.01779007
0.01604696 0.023408942 -0.03227406 0.023354812 -0.031844296 -0.036442593 -0.023206195 -0.010535213
00000000: c007 51bc bbd7 ccbc c4a5 e8bb 3351 3bbd
00000010: 9bf8 38bd 26d1 2dbd 441e 733c 5cb8 4fbd
00000020: a0e4 fdbb 619d 1dbd 52b3 e5bc c994 86bc
00000030: a205 c3bc 1da9 973c ea4a 37ba 1ca5 4fbd
00000040: e48f cfbc 6faa 02bd b1a4 1f3d 84e0 e03c
00000050: 0621 1a3c 89d2 043d ce40 33ba 6c38 a93c
00000060: 9150 a2bc e54c c8bc 3c9f c6bc e8dd d5bc
00000070: 967c 033b 4154 a1ba b254 f2bc 6912 793d
00000080: 0819 7f3c e53a d5bc 8c52 dd3c 4d42 11bc
00000090: c950 073d d915 483c f4e1 0abd 96e0 383c
000000a0: 3088 a83b 0273 f6bc b8b3 a43b 670d 9d3c
000000b0: a81f 17bd 0a2a 6c3b e257 903c 2a09 1a3d
000000c0: 20d4 43bc bf48 cb3c d905 1b3d d909 1c3d
000000d0: 8ebc 813c 133a 0ebb 2dab f33c d617 2b3c
000000e0: a149 853c 154d 323d 55dc f03c 4389 cc3c
000000f0: 4391 94bb 0eb7 90bc b0fe 863c 072f b63c
00000100: 0206 d7ba 7438 353b ff85 c53c 9baf 563d
00000110: 541b 2d3d 0536 173d 5a56 a83b 00d8 27bd
00000120: c4a0 cfbb 2988 ce3c 15b3 6fbc 8cb0 43bb
00000130: e591 293d 518a f93c a7ba f9bb f087 c7bc
00000140: d330 fbbb d4eb 283d 8552 ab3b 2e17 c53c
00000150: cdae c7bc 4522 8dba 191c 0e3d 9567 853b
00000160: fe8d f2bc 6ae2 d73b 09e5 133d 5478 1b3d
00000170: 071f dc3b 7981 afbc ecf5 debc b87f 303d
00000180: 32d6 bf3b 6ebc be3c a3ba 123b a4c6 bc3c
00000190: 48d6 65bc 282c 57bd a599 c9bc ad42 273d
000001a0: 3341 293d 5192 213d 27c7 343d 03bb ff3c
000001b0: 9a46 09bd 556c 9e3b b3f3 87bc a286 4ebc
000001c0: dd94 57bc f5d9 1dbd f98d 953c 8b59 753c
000001d0: 4f7f 833c 614c f4bc 907a b53c 3973 e3bb
000001e0: 9b83 a2bc b4ed 7dbc 04f8 07bd 8a0a 1c3d
000001f0: c9e3 ddbc 2be0 04bc 8c1d 2f3d 76f5 383c
00000200: ea20 67bb a35c b9bc 6e50 ab3b aed3 e03c
00000210: c07f 16bb 5f15 bd3c 57b7 14bd 38c4 9abb
00000220: ce72 843c 6295 e83c f3b7 003d c41d a9ba
00000230: 8668 9cbc c103 2cbc 0796 f63c 805e 823a
00000240: bad4 b03c 1ae9 35bd 0a4a 32bd c482 13bd
00000250: c7a5 debc abdd b7bc 8487 ddbc 1296 69bd
00000260: a2b1 a83c cd07 bb3c a9f4 163d a57a 3abd
00000270: 8adc 013d 7d8f c63c 5e12 283d 34f0 2e3b
00000280: 1805 583b 54d7 d63c bc38 7dbc 0eb2 2b3d
00000290: 82c1 ecbc 277b 61bb de70 9c3c 8d64 9dbb
000002a0: dac1 42bc 96c3 c5bc 39c1 05bd f008 bc3b
000002b0: 2f29 21bd 9614 de3b 0a09 ca3c 44d8 d3bc
000002c0: 5ef8 42bd bcaa 573c 165d a8bc 7180 a5bc
000002d0: a538 263c 3845 4fbb e93b da3c 17e8 5f3c
000002e0: 11b3 d73b f896 cb3c 77e6 a63c cd04 a83c
000002f0: 5f27 17b9 bd5c 0abd 1f2c b5bc af34 663c
00000300: 9ba3 1c3d 23b2 deba f745 b23c 221b 293a
00000310: 3429 233d 8bd0 ec3c 9fe0 e9bc 7e3b 1a3d
00000320: bb01 813c fb5c 11bd 099b 893c b6af d0bc
00000330: 7b96 083d 1b74 b53c 7ae7 3cbd c8a6 a53b
00000340: efac 23bd 8655 ad3c c039 00bc 57e0 02bd
00000350: 4865 59bc 3c41 703c 0977 043d 39cb 0a3d
00000360: 373d a93c 802f 223d 89ff 2abd 855a e3bc
00000370: 747f 89ba 4c2d 68ba 6f65 e73c a7b6 92b9
00000380: 250c 0a3d d9a3 183d ed34 e6bb 30d2 9bbb
00000390: 8f7a 173d 5b3c eb3c 7abc 123d 2c33 dbbc
000003a0: bf65 8bbc 114d c6bc 9d24 29bc ab4d ec3b
000003b0: a7ac e23c d8f7 373d f890 6e3d 7047 2a3c
000003c0: 0b33 0abd e663 ccbc 3d4f d9bb 91b4 513b
000003d0: e11f 683c 114e f93c a49f dfbc 7bbc 913c
000003e0: ea74 833c 1cc4 bf3c ce31 04bd 9752 bf3c
000003f0: 2a6f 02bd d444 15bd eb1a bebc e39b 2cbc

conv4.bias f4 [128]
0.008452704 -0.00107449 -0.016905587 -0.01698916 0.009338363 0.016470527 0.013247013 0.032535795
-0.025235072 0.036764774 0.01653475 -0.015148574 -0.04699639 0.040175565 -0.032877285 0.004654203
-0.028118262 0.008007847 -0.025024218 -0.009568351 0.010595968 -0.034602646 0.01201367 0.017867083
0.00094106456 0.015810004 -0.02703206 0.01598559 0.032566585 -0.011821447 -0.03591141 -0.00013896453
-0.042319294 0.042949967 -0.0073714703 0.01611295 -0.020235056 -0.027015941 0.010940374 0.017113227
-0.036366742 0.027957011 0.005542863 -0.026580475 0.0016909802 -0.022191688 -0.03752691 -0.03402045
-0.017273638 -0.009926679 -0.030929945 -0.04614593 0.03835515 0.0033917278 -0.0066125663 -0.03903157
-0.027707575 -0.039102405 -0.02543601 0.012958904 -0.009394968 0.014771584 -0.039095912 0.030563798
-0.027006114 0.009578807 0.032252613 0.03361325 -0.04068547 0.0070936717 0.003888104 0.025163937
0.043228306 -0.014806842 0.033577733 -0.03200013 0.0073811295 -0.0025439877 -0.021861183 -0.006434402
-0.033459503 0.039877765 0.025227824 -0.0372642 -0.027372299 -0.033318248 0.0004686382 -0.03607219
0.03564978 -0.009508027 -0.029232332 0.04770847 0.024549378 -0.0047303853 0.03141692 0.04315305
0.043572225 0.0005542798 0.02311411 0.017320914 0.04689086 -0.028067563 0.025329378 0.035364605
0.004078623 0.044545602 0.007749983 -0.013710355 0.03294397 0.02771759 0.023000116 -0.007634634
0.046212237 0.011215366 -0.012998321 0.036290374 -0.032878246 0.033258714 -0.018157292 0.032944877
-0.007136432 0.0057935873 -0.02347523 0.030924845 0.017677674 -0.02326196 0.042454656 0.018886758
00000000: 367d 0a3c e7d5 8cba 967d 8abc da2c 8bbc
00000010: efff 183c 33ed 863c 000a 593c 4144 053d
00000020: c8b9 cebc a996 163d e273 873c b931 78bc
00000030: 497f 40bd 228f 243d 55aa 06bd 4982 983b
00000040: 4558 e6bc 5833 033c 97ff ccbc 93c4 1cbc
00000050: b69a 2d3c 81bb 0dbd fcd4 443c fd5d 923c
00000060: c6b1 763a fb83 813c 5772 ddbc 36f4 823c
00000070: 8a64 053d beae 41bc d817 13bd 02b7 11b9
00000080: ff56 2dbd 4eec 2f3d 608c f1bb 4eff 833c
00000090: fdc3 a5bc 8950 ddbc 413f 333c 0a31 8c3c
000000a0: 4bf5 14bd 1a06 e53c e8a0 b53b 4cbf d9bc
000000b0: e1a3 dd3a 58cb b5bc d1b5 19bd 0759 0bbd
000000c0: 7281 8dbc 82a3 22bc cc60 fdbc 8403 3dbd
000000d0: 4a1a 1d3d c047 5e3b 3aae d8bb 91df 1fbd
000000e0: fffa e2bc d829 20bd 2e5f d0bc 9551 543c
000000f0: 5aed 19bc 8404 723c 0923 20bd ee60 fa3c
00000100: ed3b ddbc 6ef0 1c3c 511b 043d 0cae 093d
00000110: cfa5 26bd 0872 e83b 90cf 7e3b 9a24 ce3c
00000120: 2a10 313d 6698 72bc ce88 093d 9112 03bd
00000130: 67dd f13b 08b9 26bb 3916 b3bc add7 d2bb
00000140: d50c 09bd de56 233d 95aa ce3c 59a2 18bd
00000150: df3b e0bc b778 08bd 8eb3 f539 6fc0 13bd
00000160: 8105 123d 8ec7 1bbc a578 efbc f569 433d
00000170: c71b c93c 5901 9bbb 07af 003d 41c1 303d
00000180: ca78 323d 164d 113a cd59 bd3c 97e4 8d3c
00000190: a110 403d f2ed e5bc 8e7f cf3c 7ada 103d
000001a0: f8a5 853b 7375 363d 92f3 fd3b 66a1 60bc
000001b0: 42f0 063d 0010 e33c bd6a bc3c f42b fabb
000001c0: 0b49 3d3d a8c0 373c e9f6 54bc 37a5 143d
000001d0: 57ab 06bd 4a3a 083d 9abe 94bc 35f1 063d
000001e0: bbd8 e9bb 22d8 bd3b 204f c0bc 1a56 fd3c
000001f0: c5d0 903c de8f bebc efe4 2d3d 67b8 9a3c

out.weight f4 [10, 4608]
0.014747679 0.015995437 0.020551145 0.015615596 0.016184932 0.011661087 0.026023138 0.0031414484
0.008099921 -0.014488884 0.011578173 -0.009646033 -0.002812432 0.000105483574 -0.015717162 -0.01937166
-0.020296205 -0.0036571433 -0.013980746 -0.006113208 -0.0073074726 0.0007747738 -0.014217948 -9.749284e-05
-0.0062917843 -0.005090656 0.008572329 -0.00763721 -0.00073568925 -0.014961118 -0.011361224 -0.011039108
-0.011441423 0.0078228805 -0.014782216 -0.007960399 0.019961163 -0.004218374 -0.009803965 -0.015556278
-0.0008648173 -0.013752193 0.013726264 0.006243097 -0.009674411 -0.019938402 -0.008862234 0.0041493033
0.005510549 0.003134316 -0.013792183 -0.0052364673 -0.02592915 -0.024106031 -0.012690683 -0.0076552713
-0.013551943 -0.018883796 -0.0058559664 -0.01693213 -0.0005380633 0.008662707 -0.0079402495 -0.014730715
0.01205074 -0.023630323 -0.014576586 0.013906656 0.0013054584 0.0055633998 0.020284701 -0.004862377
0.019679476 0.000768872 -0.0123670185 -0.0029148418 -0.004249413 -0.002509542 0.016131451 0.011103053
-0.0032014507 -0.0141630415 -0.0091866255 0.0018550578 0.0044703446 -0.018933946 -0.020015504 0.0037835024
-0.004170206 0.0010830853 -0.01894798 -0.016286591 -0.016541544 0.002024875 -0.018148215 -0.018483076
-0.022678385 -0.0058109793 -0.0009453092 -0.023657022 -0.011863061 -0.012224287 -0.013132891 0.0011777445
-0.0042494307 -0.01845791 -0.004276389 0.0031322897 -0.006721532 -0.0011357237 0.005764238 -0.005736805
-0.008718809 0.008698846 0.0061324146 -0.014471043 -0.0047234287 0.019548452 -0.0051437574 -0.012679087
0.0023005703 0.015552301 0.01934349 -0.0042073666 0.0017586144 -0.013178997 0.013939871 -0.0068789152
0.018893037 0.008791287 0.019077657 -0.0118507575 0.011839473 -0.003555465 0.017548183 0.017058322
-0.008379814 0.012925428 -0.0051224413 0.010240073 -0.011910262 -0.012117563 -0.010877232 0.008044689
-0.022410871 -0.016601877 -0.018863056 -0.02147495 -0.012226108 -0.015524685 -0.010179239 -0.000617921
0.0017894366 -0.0024387282 -0.022302212 0.004280987 0.0049994895 -0.019538 -0.014108435 0.0040414413
0.0015902391 -0.005360782 0.0015693797 0.0062181354 -0.0050249235 0.012526037 0.012393329 0.0028606947
0.019425228 0.0050870203 -9.503037e-06 0.005201841 0.022697942 0.0044799694 0.004644947 -0.0036672119
0.015356073 -0.0071619726 0.015325509 0.021001216 -0.0011558695 0.007609006 0.028318042 0.027839368
0.013126242 0.022972165 0.016725512 0.01107916 -0.0025647297 -0.007385715 -0.011143132 -0.004439064
0.0116141355 0.018972196 0.0053323763 -0.0068414905 -0.0092328945 0.00494809 -0.0037854968 0.020183299
0.010684005 -0.0010779308 -0.01744714 -0.009031764 0.0032381867 0.0057607875 0.00066103245 -0.0067131673
-0.018141126 -0.022061653 -0.009214253 -0.013110485 -0.0077327173 0.00073117454 0.005277572 -0.0001129911
-0.013514787 -0.0101972185 0.012089849 -0.011051228 0.006665283 0.012432037 0.004831833 0.021422394
0.004499109 0.009707259 -0.015432537 -0.0067154416 0.003810106 0.018853487 0.008691978 -0.011636225
-0.005920054 0.010369166 0.012133897 0.020388681 0.015327585 0.011678316 0.010352725 0.0045759976
0.002755527 -0.002163296 0.017106885 0.0047802147 0.016650496 -0.0069232816 -0.0010699613 -0.019060684
-0.022549996 -0.01296327 -0.001794445 -0.013013434 -0.008151377 -0.0015017684 -0.020746447 0.004873937
00000000: 40a0 713c dd08 833c e05a a83c 8fd8 7f3c
00000010: 4396 843c 250e 3f3c 7a2e d53c c2e0 4d3b
00000020: 88b5 043c c962 6dbc 61b2 3d3c 650a 1ebc
00000030: c750 38bb 1037 dd38 47c1 80bc 51b1 9ebc
00000040: 3a44 a6bc afac 6fbb 800f 65bc 4e51 c8bb
00000050: 8673 efbb 311a 4b3a 65f2 68bc 1275 ccb8
00000060: 502b cebb 85cf a6bb f472 0c3c 9041 fabb
00000070: 45db 40ba 7a1f 75bc 6d24 3abc 60dd 34bc
00000080: ce74 3bbc 8a2b 003c 1c31 72bc 556c 02bc
00000090: 9885 a33c 493a 8abb cfa0 20bc c2df 7ebc
000000a0: e8b4 62ba e150 61bc 20e4 603c e592 cc3b
000000b0: 6c81 1ebc dc55 a3bc e732 11bc e1f6 873b
000000c0: d691 b43b 1969 4d3b 9cf8 61bc ac96 abbb
000000d0: 5e69 d4bc 037a c5bc 95ec 4fbc 12d9 fabb
000000e0: f808 5ebc 31b2 9abc 68e3 bfbb 40b5 8abc
000000f0: d10c 0dba 07ee 0d3c d217 02bc 1959 71bc
00000100: 7870 453c 6194 c1bc a2d2 6ebc bed8 633c
00000110: ea1b ab3a 2e4d b63b 1a2c a63c 9354 9fbb
00000120: da36 a13c 208e 493a 099f 4abc ee06 3fbb
00000130: a93e 8bbb 2177 24bb 1b26 843c 94e9 353c
00000140: 6ecf 51bb 1a0c 68bc 8083 16bc 6925 f33a
00000150: f87b 923b 5d1b 9bbc 8ef7 a3bc a3f4 773b
00000160: 39a6 88bb 50f6 8d3a cb38 9bbc 756b 85bc
00000170: 2282 87bc c4b3 043b 91ab 94bc d269 97bc
00000180: 05c8 b9bc 076a bebb a0ce 77ba 5fcc c1bc
00000190: 495d 42bc 6048 48bc 562b 57bc 8c5e 9a3a
000001a0: cf3e 8bbb 0b35 97bc f320 8cbb 1a47 4d3b
000001b0: 4c40 dcbb 90dc 94ba efe1 bc3b cffb bbbb
000001c0: 56d9 0ebc 9b85 0e3c 6cf2 c83b f417 6dbc
000001d0: fec6 9abb 1324 a03c f78c a8bb f2bb 4fbc
000001e0: 2ac5 163b 14cf 7e3c 3d76 9e3c f3dd 89bb
000001f0: 4f81 e63a b8ec 57bc 0f64 643c 8668 e1bb
00000200: 92c5 9a3c 5509 103c bf48 9c3c ae29 42bc
00000210: 59fa 413c ce02 69bb 35c1 8f3c e5bd 8b3c
00000220: 7d4b 09bc 2dc5 533c 27da a7bb fbc5 273c
00000230: 4223 43bc be88 46bc 6b36 32bc dfcd 033c
00000240: 0197 b7bc a900 88bc b286 9abc 3cec afbc
00000250: 0450 48bc 405b 7ebc d3c6 26bc fafb 21ba
00000260: 878b ea3a 12d3 1fbb 21b3 b6bc 8647 8c3b
00000270: c2d2 a33b 280e a0bc 1127 67bc 116e 843b
00000280: 926f d03a 80a9 afbb a5b3 cd3a 80c1 cb3b
00000290: 1da8 a4bb 023a 4d3c 640d 4b3c 7e7a 3b3b
000002a0: a821 9f3c 05b1 a63b 3c6f 1fb7 3474 aa3b
000002b0: 09f1 b93c b5cc 923b a434 983b 9b55 70bb
000002c0: 0a98 7b3c fbae eabb d817 7b3c be0a ac3c
000002d0: 8b80 97ba f854 f93b 3dfb e73c 630f e43c
000002e0: 730f 573c 1f30 bc3c f103 893c 5d85 353c
000002f0: 0615 28bb de03 f2bb af91 36bc 9175 91bb
00000300: 3749 3e3c 946b 9b3c 37bb ae3b 952e e0bb
00000310: 9145 17bc 9623 a23b 1916 78bb 7257 a53c
00000320: f70b 2f3c 5b49 8dba 4eed 8ebc f7f9 13bc
00000330: c237 543b fdc4 bc3b 2349 2d3a 21fa dbbb
00000340: b39c 94bc a4ba b4bc 61f7 16bc 5ccd 56bc
00000350: bc62 fdbb 4bac 3f3a 7cef ac3b a3f5 ecb8
00000360: 206d 5dbc 3c12 27bc 8114 463c 3610 35bc
00000370: 7268 da3b beaf 4b3c 5a54 9e3b 047e af3c
00000380: 436d 933b 320b 1f3c c0d8 7cbc 350d dcbb
00000390: f9b2 793b a172 9a3c cc68 0e3c dda5 3ebc
000003a0: 03fd c1bb 6fe3 293c 41cd 463c 2a06 a73c
000003b0: 8d20 7b3c 6856 3f3c 7a9e 293c 40f2 953b
000003c0: 1296 343b 16c6 0dbb bd23 8c3c 59a3 9c3b
000003d0: 9f66 883c b2dc e2bb f23d 8cba 2725 9cbc
000003e0: c5ba b8bc e563 54bc 9533 ebba 4c36 55bc
000003f0: 5a8d 05bc fcd6 c4ba 74f4 a9bc 8cb5 9f3b

out.bias f4 [10]
-0.0017849912 -0.012105877 -0.020292463 0.0070164576 -0.014367086 -0.008013372 -9.0262736e-05 0.00181754
0.0032908088 -0.0034623346
00000000: 5ef6 e9ba ba57 46bc 613c a6bc 50ea e53b
00000010: ed63 6bbc 854a 03bc 704b bdb8 863a ee3a
00000020: 9caa 573b 56e8 62bb
